…
2023-07-05 19:28:35,511 - train - INFO -     out_dim                  : 200
2023-07-05 19:28:35,511 - train - INFO -     alpha                    : 1.0
2023-07-05 19:28:35,512 - train - INFO -     beta                     : 1.0
2023-07-05 19:28:35,512 - train - INFO -     gamma                    : 1.0
2023-07-05 19:28:35,512 - train - INFO -     input_dim                : 10
2023-07-05 19:28:35,512 - train - INFO - ----------------------------------------------------------------------------------------------------
2023-07-05 19:28:35,512 - train - INFO - SubgroupTEE(
  (embedding): Sequential(
    (0): Linear(in_features=10, out_features=10, bias=True)
    (1): ReLU()
  )
  (encoder_layer): TransformerEncoderLayer(
    (self_attn): MultiheadAttention(
      (out_proj): NonDynamicallyQuantizableLinear(in_features=10, out_features=10, bias=True)
    )
    (linear1): Linear(in_features=10, out_features=200, bias=True)
    (dropout): Dropout(p=0.1, inplace=False)
    (linear2): Linear(in_features=200, out_features=10, bias=True)
    (norm1): LayerNorm((10,), eps=1e-05, elementwise_affine=True)
    (norm2): LayerNorm((10,), eps=1e-05, elementwise_affine=True)
    (dropout1): Dropout(p=0.1, inplace=False)
    (dropout2): Dropout(p=0.1, inplace=False)
  )
  (transformer_encoder): TransformerEncoder(
    (layers): ModuleList(
      (0-1): 2 x TransformerEncoderLayer(
        (self_attn): MultiheadAttention(
          (out_proj): NonDynamicallyQuantizableLinear(in_features=10, out_features=10, bias=True)
        )
        (linear1): Linear(in_features=10, out_features=200, bias=True)
        (dropout): Dropout(p=0.1, inplace=False)
        (linear2): Linear(in_features=200, out_features=10, bias=True)
        (norm1): LayerNorm((10,), eps=1e-05, elementwise_affine=True)
        (norm2): LayerNorm((10,), eps=1e-05, elementwise_affine=True)
        (dropout1): Dropout(p=0.1, inplace=False)
        (dropout2): Dropout(p=0.1, inplace=False)
      )
    )
  )
  (init_treat_out): Linear(in_features=10, out_features=1, bias=True)
  (init_control_out): Linear(in_features=10, out_features=1, bias=True)
  (assignment): ClusterAssignment()
  (control_out): Sequential(
    (0): Linear(in_features=15, out_features=200, bias=True)
    (1): ReLU()
    (2): Linear(in_features=200, out_features=200, bias=True)
    (3): ReLU()
    (4): Linear(in_features=200, out_features=1, bias=True)
  )
  (treat_out): Sequential(
    (0): Linear(in_features=15, out_features=200, bias=True)
    (1): ReLU()
    (2): Linear(in_features=200, out_features=200, bias=True)
    (3): ReLU()
    (4): Linear(in_features=200, out_features=1, bias=True)
  )
  (propensity): Sequential(
    (0): Linear(in_features=15, out_features=1, bias=True)
    (1): Sigmoid()
  )
)
2023-07-05 19:28:35,512 - train - INFO - ----------------------------------------------------------------------------------------------------
2023-07-05 19:28:36,504 - trainer - INFO -     epoch          : 10
2023-07-05 19:28:36,504 - trainer - INFO -     loss           : 261.4757499694824
2023-07-05 19:28:36,504 - trainer - INFO -     PEHE           : 2.5738778114318848
…
